Model 1:  one convolution layer and one max pooling

Loss = 3.4899
Accuracy = 0.0568

Very inaccurate. Try to increase the number of units in the convolution layer

model.add(tf.keras.layers.Conv2D(30, (5,5), input_shape = (IMG_WIDTH,IMG_HEIGHT,3), activation = "relu"))
model.add(tf.keras.layers.MaxPooling2D(pool_size=(3,3)))

Model: "sequential_19"
_________________________________________________________________
Layer (type)                 Output Shape              Param #
=================================================================
conv2d_15 (Conv2D)           (None, 26, 26, 30)        2280
_________________________________________________________________
max_pooling2d_15 (MaxPooling (None, 8, 8, 30)          0
_________________________________________________________________
flatten_6 (Flatten)          (None, 1920)              0
_________________________________________________________________
dense_10 (Dense)             (None, 128)               245888
_________________________________________________________________
dropout_5 (Dropout)          (None, 128)               0
_________________________________________________________________
dense_11 (Dense)             (None, 43)                5547
=================================================================
Total params: 253,715
Trainable params: 253,715


Model 2: one convolution layer with 128 unites, results still pretty bad

loss: 3.4959 - accuracy: 0.0551

Model: "sequential"
_________________________________________________________________
Layer (type)                 Output Shape              Param #
=================================================================
conv2d (Conv2D)              (None, 26, 26, 128)       9728
_________________________________________________________________
max_pooling2d (MaxPooling2D) (None, 8, 8, 128)         0
_________________________________________________________________
flatten (Flatten)            (None, 8192)              0
_________________________________________________________________
dense (Dense)                (None, 128)               1048704
_________________________________________________________________
dropout (Dropout)            (None, 128)               0
_________________________________________________________________
dense_1 (Dense)              (None, 43)                5547
=================================================================
Total params: 1,063,979
Trainable params: 1,063,979
Non-trainable params: 0
_________________________________________________________________


Model 3: Two convolution layer has significantly boosted the accuracy

loss: 0.1294 - accuracy: 0.9693

Model: "sequential_22"
_________________________________________________________________
Layer (type)                 Output Shape              Param #
=================================================================
conv2d_18 (Conv2D)           (None, 28, 28, 32)        896
_________________________________________________________________
conv2d_19 (Conv2D)           (None, 26, 26, 32)        9248
_________________________________________________________________
max_pooling2d_18 (MaxPooling (None, 13, 13, 32)        0
_________________________________________________________________
flatten_9 (Flatten)          (None, 5408)              0
_________________________________________________________________
dense_16 (Dense)             (None, 128)               692352
_________________________________________________________________
dropout_8 (Dropout)          (None, 128)               0
_________________________________________________________________
dense_17 (Dense)             (None, 43)                5547
=================================================================
Total params: 708,043
Trainable params: 708,043
Non-trainable params: 0
_________________________________________________________________

Model 4: Even more convolution and maxpooling layers!!

The results are more accurate, and converges even faster (Training accuracy was over 90% after Epoch 4/10 ).
loss: 0.0870 - accuracy: 0.9797

_________________________________________________________________
Layer (type)                 Output Shape              Param #
=================================================================
conv2d (Conv2D)              (None, 28, 28, 32)        896
_________________________________________________________________
conv2d_1 (Conv2D)            (None, 26, 26, 32)        9248
_________________________________________________________________
max_pooling2d (MaxPooling2D) (None, 13, 13, 32)        0
_________________________________________________________________
conv2d_2 (Conv2D)            (None, 11, 11, 32)        9248
_________________________________________________________________
max_pooling2d_1 (MaxPooling2 (None, 5, 5, 32)          0
_________________________________________________________________
flatten (Flatten)            (None, 800)               0
_________________________________________________________________
dense (Dense)                (None, 128)               102528
_________________________________________________________________
dropout (Dropout)            (None, 128)               0
_________________________________________________________________
dense_1 (Dense)              (None, 43)                5547
=================================================================
Total params: 127,467
Trainable params: 127,467
Non-trainable params: 0